…
(1001, 42) (1001, 2) (324, 42) (324, 2)
(656, 42) (656, 2) (324, 42) (324, 2)
(355, 42) (355, 2) (324, 42) (324, 2)
(656, 42) (656, 2) (324, 42) (324, 2)
(656, 42) (656, 2) (324, 42) (324, 2)
(1001, 42) (1001, 2) (324, 42) (324, 2)
(1002, 42) (1002, 2) (324, 42) (324, 2)
(355, 42) (355, 2) (324, 42) (324, 2)
10
Model: "vgg16"
_________________________________________________________________
 Layer (type)                Output Shape              Param #
=================================================================
 input_1 (InputLayer)        [(None, 42, 1)]           0
 block1_conv1 (Conv1D)       (None, 42, 64)            256
 block1_conv2 (Conv1D)       (None, 42, 64)            12352
 block1_pool (MaxPooling1D)  (None, 21, 64)            0
 block2_conv1 (Conv1D)       (None, 21, 128)           24704
 block2_conv2 (Conv1D)       (None, 21, 128)           49280
 block2_pool (MaxPooling1D)  (None, 10, 128)           0
 block3_conv1 (Conv1D)       (None, 10, 256)           98560
 block3_conv2 (Conv1D)       (None, 10, 256)           196864
 block3_conv3 (Conv1D)       (None, 10, 256)           196864
 block3_pool (MaxPooling1D)  (None, 5, 256)            0
 block4_conv1 (Conv1D)       (None, 5, 512)            393728
 block4_conv2 (Conv1D)       (None, 5, 512)            786944
 block4_conv3 (Conv1D)       (None, 5, 512)            786944
 block4_pool (MaxPooling1D)  (None, 2, 512)            0
 block5_conv1 (Conv1D)       (None, 2, 512)            786944
 block5_conv2 (Conv1D)       (None, 2, 512)            786944
 block5_conv3 (Conv1D)       (None, 2, 512)            786944
 block5_pool (MaxPooling1D)  (None, 1, 512)            0
 global_average_pooling1d (  (None, 512)               0
 GlobalAveragePooling1D)
 predictions (Dense)         (None, 2)                 1026
=================================================================
Total params: 4908354 (18.72 MB)
Trainable params: 4908354 (18.72 MB)
Non-trainable params: 0 (0.00 Byte)
_________________________________________________________________
[34m[1mwandb[39m[22m: [33mWARNING[39m The save_model argument by default saves the model in the HDF5 format that cannot save custom objects like subclassed models and custom layers. This behavior will be deprecated in a future release in favor of the SavedModel format. Meanwhile, the HDF5 model is saved as W&B files and the SavedModel as W&B Artifacts.
…
